assets/model2/crop_model.tflite (tflite, 181816 bytes, 10 tensors)

sequential_2/dense_14/BiasAdd/ReadVariableOp f4 [22]
-0.011296509 -0.015436113 0.018017568 -0.019734602 -0.014167594 -0.020173853 -0.0101877665 0.007977209
0.008362889 -0.01968472 0.003241364 0.028115453 -0.011776072 -0.0021332714 -0.001977251 -0.018065155
-0.015922673 0.023073796 0.008898541 -0.013825098 0.004792003 -0.006898843
00000000: fe14 39bc c0e7 7cbc 9499 933c 76aa a1bc
00000010: 321f 68bc a343 a5bc 97ea 26bc d7b2 023c
00000020: 8004 093c da41 a1bc 106d 543b 6152 e63c
00000030: 6df0 40bc 5bce 0bbb c494 01bb 60fd 93bc
00000040: 4470 82bc 4205 bd3c 30cb 113c aa82 62bc
00000050: 3c06 9d3b b10f e2bb

sequential_2/dense_13/BiasAdd/ReadVariableOp f4 [128]
-0.012528242 0.022101669 -0.019893568 0.002927334 0.0061704502 0.017231183 0.0014919103 0.012346631
0.0042871805 0.030572167 0.008041516 0.018174496 0.016689343 -0.0002395998 0.04155936 0.010443384
0.025009483 0.016667726 0.018094985 0.011068411 -0.024943754 0.025708104 0.022933438 0.010120582
0.0047383695 -0.011878358 0.01085948 -0.032692257 0.042741366 0.016550597 0.01860056 0.010738363
0.022378372 0.024471547 0.0034802754 0.009382584 0.014062726 0.042383295 0.023581382 -0.008575556
0.0020522878 0.053587712 0.0026158665 0.009175332 0.03504997 0.014048671 0.028753685 -0.019854225
0.028227521 0.015619274 -0.05250592 0.0042122677 0.019753091 -0.00033482898 0.01609156 -0.00163169
-0.011348621 0.009193973 0.026821641 0.031078575 -0.02309475 -0.0069533004 0.021307249 0.023864897
0.009065757 0.030916005 0.026239205 0.022470508 -0.0015408647 0.022386149 0.01702999 0.013810175
0.012019056 -0.0027729268 0.00071292114 -0.019179111 0.01167618 0.0043562357 0.0012518303 0.023810007
-0.03313254 0.031774707 -0.0024129509 -0.0015487208 0.02839615 -0.025951419 -0.008161988 0.024257412
0.007845432 0.025491437 -0.0119816465 0.0045309654 -0.0032000062 0.0082532 0.019018983 0.006853746
-0.025955843 0.0070562484 -0.004426289 0.015272624 0.03711176 0.0030948704 0.006789401 0.003736351
-0.013824924 0.008326711 0.019433059 0.0063931453 0.021230476 -0.016118372 -0.008352242 0.028649416
0.011838809 -0.034369983 0.0033948428 0.022580959 -0.023468727 0.011031393 -0.028391698 -0.021654524
-0.023774024 0.026864832 0.006064996 -0.0011436889 -0.0125755565 0.015880771 0.021602 -0.014952705
00000000: 4143 4dbc 8f0e b53c d6f7 a2bc 84d8 3f3b
00000010: 7d31 ca3b 6928 8d3c 348c c33a 8649 4a3c
00000020: 7a7b 8c3b 7b72 fa3c 90c0 033c aee2 943c
00000030: 17b8 883c 153d 7bb9 263a 2a3d ba1a 2b3c
00000040: b0e0 cc3c c18a 883c ef3b 943c 4858 353c
00000050: d856 ccbc cd99 d23c e8de bb3c ccd0 253c
00000060: 5344 9b3b 729d 42bc f6eb 313c 51e8 05bd
00000070: 9211 2f3d 1e95 873c 3460 983c f5ef 2f3c
00000080: d952 b73c 8e78 c83c 5515 643b 69b9 193c
00000090: 5967 663c 1b9a 2d3d be2d c13c 7d80 0cbc
000000a0: ad7f 063b ca7e 5b3d f56e 2b3b 2254 163c
000000b0: 8f90 0f3d 662c 663c d98c eb3c 54a5 a2bc
000000c0: 673d e73c fce7 7f3c 7310 57bd 1007 8a3b
000000d0: 3cd1 a13c fc8b afb9 72d2 833c 6ede d5ba
000000e0: 91ef 39bc 51a2 163c 0fb9 db3c 7f98 fe3c
000000f0: 3331 bdbc 83d8 e3bb 8a8c ae3c 5180 c33c
00000100: 8a88 143c 9043 fd3c 9af3 d63c 1214 b83c
00000110: d7f6 c9ba 2863 b73c 7a82 8b3c 1244 623c
00000120: 93eb 443c feb9 35bb 54e3 3a3a 831d 9dbc
00000130: 734d 3f3c c1be 8e3b 7414 a43a 340d c33c
00000140: fcb5 07bd 3226 023d 9922 1ebb 72fe caba
00000150: 0b9f e83c 1298 d4bc dcb9 05bc 7bb7 c63c
00000160: 208a 003c 6bd3 d03c ab4e 44bc 7e78 943b
00000170: 32b7 51bb 6e38 073c b3cd 9b3c 6395 e03b
00000180: 59a1 d4bc 1a38 e73b 670a 91bb 073a 7a3c
00000190: 8002 183d 4fd3 4a3b a079 de3b 91dd 743b
000001a0: ef81 62bc c26c 083c 1432 9f3c 977d d13b
000001b0: 89eb ad3c ad0a 84bc d8d7 08bc 2eb2 ea3c
000001c0: 90f7 413c 8ac7 0cbd 037c 5e3b b4fb b83c
000001d0: 7d41 c0bc 04bd 343c b595 e8bc d464 b1bc
000001e0: bec1 c2bc a313 dc3c e0bc c63b d5e7 95ba
000001f0: b509 4ebc 6418 823c adf6 b03c 31fc 74bc

sequential_2/dense_12/BiasAdd/ReadVariableOp f4 [128]
0.012638723 0.023503669 0.015472742 -0.0036051255 -0.0062785326 0.039200876 -0.00656079 -0.026408853
0.025551865 -0.022107184 0.0054640784 -0.00020638981 -0.004037851 -0.026977958 -0.005728985 -0.0010898681
0.007107378 0.0031730917 0.014813162 0.015068644 0.026453787 -0.026928741 -0.0016546336 0.0042595086
0.013448491 0.0037490358 0.011725753 -0.01671575 0.00382391 0.004849304 -0.003849979 0.0073978635
-0.0033003313 0.010313041 0.017162684 0.04111542 -0.003842923 0.010671208 0.026420545 0.0010174613
0.01044714 0.020723967 0.021155221 -0.000351738 -0.019108998 -0.0057763155 0.03092142 -0.0012926899
0.018068867 -0.00041675774 -0.019858522 -0.023033403 -0.0022935064 0.014012331 -0.00016870495 0.032270614
0.022056436 -0.022899702 0.013830195 -0.01423053 0.019281745 -0.002488287 -0.0009114309 0.024342198
0.02177507 -0.0030232016 0.011545854 -0.0013405917 0.003962673 0.018277232 0.015111974 0.011380727
0.0015289875 0.017096452 0.008348173 -0.006360189 -0.0037909204 0.011139388 0.0146469455 -0.02294951
-0.010861249 0.0028255763 -0.019579535 0.009207336 -0.007740488 0.008908606 0.0008526917 0.015336421
0.015675357 0.0086424695 -0.03580181 -0.00022095471 0.005142906 -0.011711979 -0.011446706 -0.01891929
0.0070391567 0.018362373 0.020462334 0.012622741 -0.03175385 -0.020770961 -0.0038628469 -0.01400143
-0.00750283 0.0026036652 0.00965406 -0.011131708 0.0065351496 -0.0032847691 -0.029974045 -0.028905919
0.012333755 0.025922721 0.00884638 0.0 -0.0006855973 0.0076455153 0.019150047 -0.0023828917
-0.021372518 -0.01662919 0.0021605662 -0.009670243 -0.007938988 0.0019140429 -0.0029713772 -0.035244048
00000000: a512 4f3c c48a c03c 6281 7d3c f843 6cbb
00000010: 26bc cdbb 1991 203d e5fb d6bb 6157 d8bc
00000020: 2552 d13c 201a b5bc 030c b33b 586a 58b9
00000030: f34f 84bb e100 ddbc 36ba bbbb e8d9 8eba
00000040: 02e5 e83b a5f3 4f3b e8b2 723c 79e2 763c
00000050: 9db5 d83c aa99 dcbc 4ae0 d8ba 5993 8b3b
00000060: 0f57 5c3c 62b2 753b 5f1d 403c 78ef 88bc
00000070: 909a 7a3b e9e6 9e3b ee4f 7cbb c769 f23b
00000080: 5f4a 58bb 07f8 283c c298 8c3c a568 283d
00000090: 8dd9 7bbb 4ad6 2e3c e66f d83c 565c 853a
000000a0: 7b2a 2b3c 4fc5 a93c b74d ad3c 7a69 b8b9
000000b0: 798a 9cbc 3f47 bdbb eb4e fd3c 7a6f a9ba
000000c0: 2905 943c 4780 dab9 57ae a2bc 8cb0 bcbc
000000d0: a74e 16bb fa93 653c 64e6 30b9 312e 043d
000000e0: b3af b43c 2898 bbbc 0b98 623c 2b27 69bc
000000f0: c0f4 9d3c 8712 23bb 18ed 6eba 4a69 c73c
00000100: a261 b23c e820 46bb d22a 3d3c cbb6 afba
00000110: 4fd9 813b 22ba 953c 3798 773c 3b76 3a3c
00000120: 4f68 c83a dc0d 8c3c c7c6 083c 2269 d0bb
00000130: 1771 78bb fb81 363c bef9 6f3c 9c00 bcbc
00000140: 61f3 31bc 4e2d 393b 4365 a0bc 5eda 163c
00000150: eba3 fdbb 67f5 113c 2c87 5f3a 9d45 7b3c
00000160: 9b69 803c 2599 0d3c eba4 12bd 14b0 67b9
00000170: d385 a83b 9ae3 3fbc f78a 3bbc a0fc 9abc
00000180: baa8 e63b b06c 963c a0a0 a73c 9dcf 4e3c
00000190: 5310 02bd dd27 aabc d127 7dbb 4166 65bc
000001a0: 4dda f5bb 41a2 2a3b 102c 1e3c c461 36bc
000001b0: cf24 d63b 4845 57bb 218c f5bc 1bcc ecbc
000001c0: 8513 4a3c e35b d43c 68f0 103c 0000 0000
000001d0: a8b9 33ba 3b87 fa3b 8fe0 9c3c 4a2a 1cbb
000001e0: 6b15 afbc f039 88bc 4998 0d3b f06f 1ebc
000001f0: 8712 02bc 9fe0 fa3a 70bb 42bb 105c 10bd

sequential_2/dense_11/BiasAdd/ReadVariableOp f4 [128]
-0.012815704 0.043728527 0.016738743 0.00309876 0.03822114 0.012843043 -0.0019793527 0.011248883
5.0664865e-05 -0.007815111 -0.0072981464 0.036338683 -0.0031910546 0.020423114 0.014020154 -0.008567328
-0.012085462 -0.0022773533 0.0046839872 -0.004841226 -0.0068356544 -0.01662019 -0.008682755 -0.032091662
0.004361139 -0.023883162 0.0029849913 -0.00029266658 0.0050525167 -0.0017283881 -0.008275408 -0.009105227
0.01651471 -0.015601634 -0.0032677941 0.007185704 -0.0006527436 -0.042810503 0.03327922 0.0065662535
0.016647479 0.019239848 0.014199252 0.020692905 -0.032233562 0.009278579 0.014348598 0.02034754
-0.01159811 -0.0066059968 0.02115544 -0.017291566 -0.0062043127 0.023523606 0.012508582 0.021268673
0.014465486 -0.008122551 0.023167202 -0.017509209 0.022006882 -0.0007141977 -0.003576912 -0.015519098
0.03090369 0.00024102468 0.010831772 0.010384556 -0.001173865 0.026903342 0.0035957955 0.014214521
-0.021090059 -0.022374708 0.0032413525 -0.0028148545 0.01950603 -0.015630636 0.0045621223 9.563629e-05
0.031214533 -0.006954689 -0.014060304 -0.031527504 -0.0032999353 0.00053866423 -0.0024425555 0.0049343104
-0.024992913 -0.010089488 0.022375533 0.0 0.006522224 0.0017863641 0.0035969256 -0.018471297
0.0008488342 -0.0054427152 -0.017800547 -0.015839025 0.009811162 -0.006326149 0.010512366 0.013538644
-0.004272313 0.022606065 -0.010380355 0.014633239 -0.011460117 -0.0006155282 0.015357347 0.019145599
0.006920135 -0.021604693 -0.0034926098 0.0072413385 -0.011765699 -0.019488443 -0.01171491 -0.0084627075
0.023850782 -0.010431008 0.008895921 0.022235395 -0.029061908 -0.0027273432 0.0050973324 -0.027162144
00000000: f5f8 51bc af1c 333d b01f 893c 9114 4b3b
00000010: c58d 1c3d a06b 523c 07b8 01bb 3c4d 383c
00000020: fc80 5438 f40a 00bc 4a25 efbb dfd7 143d
00000030: 0321 51bb 604e a73c cab4 653c fa5d 0cbc
00000040: 1a02 46bc a63f 15bb 227c 993b 26a3 9ebb
00000050: a0fd dfbb 1127 88bc 1d42 0ebc 8c72 03bd
00000060: e3e7 8e3b 9fa6 c3bc d89f 433b 0b71 99b9
00000070: 958f a53b 158b e2ba 9495 07bc 172e 15bc
00000080: db49 873c ff9d 7fbc 7d28 56bb 0e76 eb3b
00000090: e21c 2bba 115a 2fbd cb4f 083d ba29 d73b
000000a0: 4b60 883c e39c 9d3c fba3 683c 2b84 a93c
000000b0: 5707 04bd 2e05 183c 6216 6b3c e2af a63c
000000c0: 0006 3ebc 1e77 d8bb 2c4e ad3c 0ba7 8dbc
000000d0: 8c4d cbbb 94b4 c03c ccf0 4c3c a43b ae3c
000000e0: a500 6d3c 7314 05bc 25c9 bd3c 796f 8fbc
000000f0: c747 b43c ff38 3bba a06a 6abb d143 7ebc
00000100: bc29 fd3c 92bb 7c39 bf77 313c fc23 2a3c
00000110: 60dc 99ba 6664 dc3c 70a7 6b3b 06e4 683c
00000120: 0fc5 acbc 2a4b b7bc df6c 543b 6c79 38bb
00000130: 1ccb 9f3c d20b 80bc db7d 953b 5890 c838
00000140: 9fb5 ff3c 29e4 e3bb 305d 66bc fc22 01bd
00000150: ba43 58bb 2535 0d3a 4813 20bb ffaf a13b
00000160: f0bd ccbc 614e 25bc e54c b73c 0000 0000
00000170: 61b8 d53b 6f24 ea3a 66ba 6b3b 1e51 97bc
00000180: 4d84 5e3a ce58 b2bb 74d2 91bc d8c0 81bc
00000190: ffbe 203c 964b cfbb 0f3c 2c3c 30d1 5d3c
000001a0: c2fe 8bbb 5b30 b93c 5d12 2abc 41c0 6f3c
000001b0: 37c3 3bbc 665b 21ba 629d 7b3c 3bd7 9c3c
000001c0: 4dc2 e23b 53fc b0bc 45e4 64bb c048 ed3b
000001d0: ebc4 40bc 3aa6 9fbc e5ef 3fbc 2ba7 0abc
000001e0: b762 c33c d2e6 2abc 32c0 113c 0127 b63c
000001f0: 3d13 eebc 3abd 32bb 8607 a73b 2583 debc

sequential_2/dense_10/BiasAdd/ReadVariableOp f4 [64]
-0.00846759 0.07161768 -0.08005758 0.007898727 0.0 0.015622534 -0.0272683 -0.041770123
-0.029397413 0.0 0.01168435 0.0 0.0139575135 -4.570873e-06 0.00076810166 0.0
-0.012252749 -0.08791364 -0.20500596 -0.009047643 0.0014929919 -0.010618437 0.10222356 0.0
0.0 0.02930873 0.0057634003 -0.008592282 -0.030313123 -0.014656577 0.15695086 0.05967485
-0.113779284 -0.12243546 -0.13862847 0.020207845 0.001391527 0.010230074 -0.011679234 0.0
-0.009416669 0.04915321 6.629083e-05 0.009606317 0.0 0.044428892 0.018914336 0.0068306234
0.0 0.0 0.10648095 0.097088836 0.0 -0.017530004 0.0067363163 0.0062826304
-0.056197535 -0.0029499622 -0.05988194 0.0049401354 0.084985845 0.0 -0.033207424 0.054586753
00000000: a6bb 0abc 4aac 923d 3af5 a3bd aa69 013c
00000010: 0000 0000 a8f5 7f3c c561 dfbc 2617 2bbd
00000020: d8d2 f0bc 0000 0000 b76f 3f3c 0000 0000
00000030: 0eae 643c 805f 99b6 6e5a 493a 0000 0000
00000040: c1bf 48bc 110c b4bd 15ed 51be 913c 14bc
00000050: 7fb0 c33a f4f8 2dbc 965a d13d 0000 0000
00000060: 0000 0000 dd18 f03c e8da bc3b a5c6 0cbc
00000070: 3a53 f8bc 2422 70bc bab7 203e 9e6d 743d
00000080: 1d05 e9bd 71bf fabd 9ff4 0dbe ec8a a53c
00000090: e663 b63a 0a9c 273c 425a 3fbc 0000 0000
000000a0: 5f48 1abc e054 493d 9e05 8b38 d063 1d3c
000000b0: 0000 0000 12fb 353d 3df2 9a3c 6cd3 df3b
000000c0: 0000 0000 0000 0000 af12 da3d 83d6 c63d
000000d0: 0000 0000 159b 8fbc 51bc dc3b 86de cd3b
000000e0: 632f 66bd 2754 41bb c446 75bd dce0 a13b
000000f0: 0f0d ae3d 0000 0000 8204 08bd 5c96 5f3d

sequential_2/dense_10/MatMul f4 [64, 7]
0.00034768065 -0.03478611 0.25439855 -0.26234147 0.28288376 -0.016276645 -0.23270318 -0.21696757
0.2725899 -0.23781951 0.1211326 -0.20797107 0.015855562 0.26044816 -0.0123106325 -0.08922087
-0.119977035 0.040696274 0.2657234 -0.20151156 0.0077649863 0.27648565 0.034944013 0.08975142
-0.003835111 -0.21946453 0.14774336 -0.26710165 0.26035008 0.17112145 -0.10692397 -0.20309839
0.24965456 0.12498841 0.26716146 0.094361804 -0.030383078 0.017663252 -0.17683364 0.04570042
0.24555823 -0.31394666 0.07574542 0.15843786 0.2410766 -0.20619573 -0.21752155 -0.25921023
0.121159144 0.27218366 0.12740761 -0.19142169 -0.13617106 -0.24483901 -0.2178164 0.0770698
0.07049785 -0.31459868 -0.029890569 0.06592906 -0.037423804 0.12215489 0.13524143 -0.17164052
-0.23709102 0.046627074 0.13840479 -0.09407972 -0.27251855 -0.050241113 0.021982148 -0.067928754
0.23996724 0.23691317 0.024569444 -0.12383254 0.016634855 0.11574951 -0.050372377 -0.28151813
-0.006789863 -0.2739066 -0.09914027 -0.030751824 0.18666586 0.22275771 -0.26603335 -0.2036261
0.18205874 -0.15172721 0.26739234 -0.24054301 -0.1919779 0.034564212 0.15149935 -0.2680989
0.25168443 0.018787717 0.13291864 0.21779895 -0.15278293 -0.020096764 0.014056017 -0.008258211
0.08433123 -0.007923424 -0.0391787 -0.14088866 -0.05075039 0.05372429 0.016494244 -0.20508213
0.110094585 -0.10437209 0.16833737 -0.026689626 -0.11492356 -0.06129382 -0.22976992 -0.2636727
0.2593927 0.29041323 0.02996418 -0.035724968 0.03748889 -0.04005293 -0.06932761 0.04655832
-0.2287314 -0.26455325 0.24653922 -0.24055775 0.018463165 -0.045190293 -0.2557016 -0.020499721
-0.041245364 -0.15473199 0.1524934 0.22514977 0.1723762 0.2737774 0.26137632 -0.26782775
0.18722472 -0.21795371 -0.06942571 -0.2204052 -0.09163755 -0.11008938 -0.13311943 -0.11668595
-0.21383972 0.0771219 -0.14531736 -0.2337616 -0.014615679 0.3184298 0.053454734 -0.060268
0.16970994 -0.11387886 0.04899329 -0.06423554 0.15574634 0.20087191 -0.20703927 0.27098253
0.16746315 0.26433703 0.27488312 0.0026707351 0.2561089 0.0043789744 0.2321885 0.10132162
-0.0074510607 0.27546686 0.07722123 -0.21796568 -0.28974846 0.17824122 -0.28655866 0.028861132
-0.08668696 -0.02350137 0.22959796 -0.00477963 0.03638896 0.1421839 -0.10614781 -0.22173409
0.054896165 0.23056556 0.042990144 0.091157705 -0.141311 0.12858558 -0.22626719 -0.2930455
0.07022261 -0.19284664 -0.13372463 0.23486261 0.14556172 0.17723852 -0.25190178 0.07711361
-0.14648698 -0.03235011 -0.19040155 -0.1385765 0.0667734 0.16989413 0.19765119 0.3197453
-0.094219185 0.16065812 0.0665454 -0.03733411 0.15220831 0.26375875 0.047812533 -0.29921818
0.03113854 0.10081883 -0.14318995 -0.15580988 0.09778794 -0.30146477 -0.04712053 0.0918329
0.08474475 -0.12044668 -0.26193106 0.0912924 -0.25246242 -0.022293186 -0.11512324 -0.013944827
0.14561275 -0.34472242 0.15316236 0.016747769 0.023136437 -0.101826884 0.1996861 0.004577504
0.23371191 0.218752 -0.20094728 -0.1062585 0.09719242 -0.11747148 0.05724367 -0.21711263
00000000: e848 b639 e17b 0ebd 8740 823e 9f51 86be
00000010: 24d6 903e 9956 85bc be49 6ebe bf2c 5ebe
00000020: e790 8b3e f586 73be 5e14 f83d 5ef6 54be
00000030: 86e3 813c 7659 853e 89b2 49bc 6eb9 b6bd
00000040: 85b6 f5bd 23b1 263d e60c 883e 0c59 4ebe
00000050: 6d71 fe3b 878f 8d3e 7421 0f3d 98cf b73d
00000060: 7c56 7bbb 4fbb 60be 094a 173e 8cc1 88be
00000070: 9b4c 853e 763a 2f3e f4fa dabd 06f9 4fbe
00000080: 72a5 7f3e ecf9 ff3d 63c9 883e c340 c13d
00000090: efe5 f8bc 86b2 903c e113 35be 5d30 3b3d
000000a0: 9e73 7b3e 9ebd a0be 6a20 9b3d 893d 223e
000000b0: c9dc 763e f924 53be f8bd 5ebe 34b7 84be
000000c0: 4922 f83d a85b 8b3e 2477 023e 0c04 44be
000000d0: 6d70 0bbe 14b7 7abe 430b 5fbe c5d6 9d3d
000000e0: 2d61 903d 1413 a1be 11dd f4bc d105 873d
000000f0: b449 19bd 582c fa3d bb7c 0a3e 88c2 2fbe
00000100: fdc7 72be 08fc 3e3d fcb9 0d3e deac c0bd
00000110: 8d87 8bbe a0c9 4dbd e813 b43c 3b1e 8bbd
00000120: f9b9 753e 5e99 723e dc45 c93c ea9b fdbd
00000130: d245 883c 140e ed3d 4453 4ebd 2523 90be
00000140: 807d debb 7c3d 8cbe 0e0a cbbd 40eb fbbc
00000150: 5625 3f3e 991a 643e 8635 88be 5c83 50be
00000160: 9b6d 3a3e 615e 1bbe a6e7 883e e850 76be
00000170: db95 44be 3493 0d3d a522 1b3e 4244 89be
00000180: c8dc 803e b3e8 993c d31b 083e b006 5f3e
00000190: 2173 1cbe f8a1 a4bc 354b 663c 734d 07bc
000001a0: dab5 ac3d 40d1 01bc d879 20bd 1e45 10be
000001b0: a4df 4fbd 000e 5c3d f01e 873c 0d01 52be
000001c0: 4579 e13d 09c1 d5bd a260 2c3e 34a4 dabc
000001d0: 0b5d ebbd 3b0f 7bbd ce48 6bbe 1c00 87be
000001e0: 1fcf 843e 0bb1 943e 7177 f53c 5854 12bd
000001f0: f38d 193d 8b0e 24bd a2fb 8dbd f0b3 3e3d
00000200: 9038 6abe 8673 87be c774 7c3e c554 76be
00000210: 1040 973c 7519 39bd 52eb 82be 08ef a7bc
00000220: e6f0 28bd 1072 1ebe 3b27 1c3e a98d 663e
00000230: 6383 303e 8d2c 8c3e 1ed3 853e b820 89be
00000240: d6b7 3f3e 422f 5fbe 112f 8ebd e7b1 61be
00000250: 78ac bbbd 8a76 e1bd 7650 08be 0bf9 eebd
00000260: cdf8 5abe 16f2 9d3d 13ce 14be 335f 6fbe
00000270: 9a76 6fbc 3b09 a33e 5af3 5a3d 94db 76bd
00000280: 71c8 2d3e 5239 e9bd 30ad 483d ec8d 83bd
00000290: f87b 1f3e 5eb1 4d3e 1a02 54be 39be 8a3e
000002a0: 767b 2b3e 2f57 873e 7bbd 8c3e 8007 2f3b
000002b0: b520 833e 807d 8f3b d2c2 6d3e b681 cf3d
000002c0: 0728 f4bb fe09 8d3e 2a26 9e3d 6532 5fbe
000002d0: e959 94be de84 363e d1b7 92be 2e6e ec3c
000002e0: ef88 b1bd f285 c0bc ba1b 6b3e 719e 9cbb
000002f0: 970c 153d a898 113e 0664 d9bd 430e 63be
00000300: cdda 603d 6119 6c3e 6f16 303d e4b0 ba3d
00000310: d5b3 10be f0ab 033e 96b2 67be 0f0a 96be
00000320: dfd0 8f3d 9779 45be 1cef 08be d37f 703e
00000330: 220e 153e 047e 353e 45f9 80be beed 9d3d
00000340: af00 16be 8d81 04bd a0f8 42be ffe6 0dbe
00000350: 7ec0 883d baf8 2d3e 1365 4a3e a8b5 a33e
00000360: fdf5 c0bd 9083 243e f448 883d a7eb 18bd
00000370: 7fdc 1b3e 630b 873e 13d7 433d 2033 99be
00000380: 4016 ff3c 1a7a ce3d 63a0 12be a08c 1fbe
00000390: 0b45 c83d 9759 9abe 7501 41bd e312 bc3d
000003a0: a88e ad3d c0ac f6bd d41b 86be 83f7 ba3d
000003b0: c142 81be 33a0 b6bc bcc5 ebbd d878 64bc
000003c0: 821b 153e 757f b0be 98d6 1c3e 9e32 893c
000003d0: a088 bd3c 9d8a d0bd 837a 4c3e e3fe 953b
000003e0: 2d52 6f3e 8600 603e 20c5 4dbe 0e9e d9bd
000003f0: d20c c73d e394 f0bd 5778 6a3d c652 5ebe

sequential_2/dense_11/MatMul f4 [128, 64]
0.17692979 -0.048232857 -0.04151847 0.12839876 0.08765177 0.11428055 0.017136598 -0.033033174
-0.0706427 0.1563149 -0.06193149 0.13452308 0.14855236 -0.08326482 0.013702326 -0.0026154856
-0.13194038 -0.14249966 -0.09708243 0.039339874 -0.104416795 0.15063834 -0.028492402 0.1238425
-0.06932593 -0.01254067 0.028461274 0.11215639 0.03401602 0.04328299 -0.13256387 -0.18188407
-0.06014618 -0.15863846 0.14151134 -0.029703964 0.12687883 -0.13019693 -0.019110374 0.052172944
0.068802826 -0.10046113 0.08167318 0.076719105 -0.0053525358 0.17356373 -0.029147265 -0.008002454
0.012478988 -0.13015021 -0.18831702 -0.17053632 -0.14974125 0.16559029 -0.13504612 0.0876037
0.16559851 -0.023746442 -0.08876464 -0.14657192 0.16022985 -0.14486985 -0.15876855 -0.09147017
0.04897983 0.0631007 -0.19447693 -0.11133012 0.13620818 -0.19753012 0.007907593 0.016021883
-0.24183565 0.12507088 0.09350187 -0.044644084 0.10682919 0.09230599 -0.04581736 -0.14786309
0.04616011 0.23304062 -0.31073475 0.13540158 -0.02403994 0.07136045 -0.089955255 -0.061487924
0.052746695 0.15751696 -0.25616336 -0.1672684 -0.0013274269 0.17354707 -0.19637497 -0.05320001
-0.19772474 0.002503647 0.08764085 0.1911633 0.08437129 -0.085918196 -0.09550132 0.15456203
-0.124474436 0.12612407 -0.11679894 0.08424301 -0.064290956 0.22604609 0.04147766 -0.04395123
-0.036607366 0.019984687 0.08259772 -0.19942003 0.034174856 -0.053141102 -0.095721476 0.12830487
0.18236807 -0.021756971 -0.22839032 0.118846774 -0.14195947 0.005448363 -0.07077254 0.061796747
0.0776368 0.012562018 0.036578666 -0.12136188 0.038491517 0.11283971 0.043610714 -0.035679117
0.03532556 -0.10723761 0.101883985 0.09674023 0.1068214 0.12803048 0.112335406 0.07894166
-0.17963591 -0.20304792 0.06370016 0.14111574 0.05617649 -0.17050356 -0.03818622 0.13836566
0.021464122 -0.004090526 0.10204878 -0.13034508 0.013375979 -0.13954927 -0.10068454 -0.11719951
-0.12059262 0.11631449 -0.07299027 0.2820931 -0.025439767 0.15950117 -0.2386454 0.0792215
-0.16481924 -0.060349148 -0.059296783 -0.07406356 -0.05095969 -0.0043099574 0.18727891 -0.09200478
-0.07308908 0.12788153 -0.29793578 -0.12693495 0.13869026 -0.10417144 -0.08769353 -0.10867676
0.20615944 0.11075528 -0.07748549 -0.14562494 -0.17183326 -0.024172598 0.0007583102 -0.08103499
0.23170677 -0.10075773 -0.12899108 0.096540004 0.02027179 -0.05571698 -0.087477796 -0.08849111
-0.12915191 -0.17346509 -0.07229304 -0.012501045 -0.004357943 0.023297053 0.06362254 0.12006287
-0.1777149 -0.04411772 -0.0062517 -0.05175767 0.114495605 0.048720602 -0.088143334 0.08369924
-0.026320037 -0.035640396 -0.084426925 -0.09520423 -0.16454825 0.12224218 -0.029061075 -0.016149726
-0.16844404 -0.021757739 -0.13433683 0.14137691 -0.044412613 0.17225984 -0.027870933 0.07150467
0.052207917 0.04898257 0.005320252 0.23545823 0.17649268 -0.12299608 0.16227415 -0.09947548
-0.027351491 -0.17935036 0.17011353 0.09499021 0.07719417 0.16666286 0.018449176 -0.014264606
0.05567308 -0.116443306 -0.053244576 -0.16596374 -0.093166254 0.04050321 0.028221104 0.04594934
00000000: 152d 353e d18f 45bd 450f 2abd f77a 033e
00000010: c582 b33d ec0b ea3d 0d62 8c3c cb4d 07bd
00000020: 1fad 90bd 0311 203e e0ab 7dbd 6bc0 093e
00000030: 1c1e 183e bf86 aabd b97f 603c 9168 2bbb
00000040: 611b 07be 6eeb 11be 27d3 c6bd d922 213d
00000050: 79d8 d5bd f040 1a3e e668 e9bc 23a1 fd3d
00000060: c1fa 8dbd 6277 4dbc 9e27 e93c 40b2 e53d
00000070: 6254 0b3d 8149 313d d3be 07be d13f 3abe
00000080: d75b 76bd 1f72 22be 59e8 103e ba55 f3bc
00000090: 86ec 013e 5852 05be 5c8d 9cbc 4cb3 553d
000000a0: 7fe8 8c3d 91be cdbd 4544 a73d e81e 9d3d
000000b0: 5364 afbb b1ba 313e 3fc6 eebc ba1c 03bc
000000c0: ab74 4c3c 1946 05be 2dd6 40be 13a1 2ebe
000000d0: c555 19be 8090 293e 8849 0abe 9269 b33d
000000e0: a892 293e e687 c2bc 3cca b5bd f316 16be
000000f0: 4b13 243e c358 14be 3994 22be b654 bbbd
00000100: 139f 483d f13a 813d f624 47be 0c01 e4bd
00000110: 287a 0b3e 5645 4abe d98e 013c 5340 833c
00000120: c4a3 77be 9512 003e e97d bf3d b7dc 36bd
00000130: 43c9 da3d ec0a bd3d fcaa 3bbd 6c69 17be
00000140: 6212 3d3d 33a2 6e3e a018 9fbe b6a6 0a3e
00000150: 69ef c4bc 6d25 923d 763a b8bd c3da 7bbd
00000160: eb0c 583d 204c 213e d827 83be 6848 2bbe
00000170: 0efd adba 53b6 313e 8516 49be 41e8 59bd
00000180: 5b78 4abe 3a14 243b 0c7d b33d 50c0 433e
00000190: dbca ac3d e1f5 afbd 3296 c3bd 8245 1e3e
000001a0: 74ec febd ab26 013e 4834 efbd 9987 ac3d
000001b0: faaa 83bd a078 673e 7be4 293d 3406 34bd
000001c0: 9bf1 15bd edb6 a33c fe28 a93d c434 4cbe
000001d0: effa 0b3d 7caa 59bd 9f09 c4bd 5a62 033e
000001e0: b2be 3a3e ad3b b2bc 27df 69be f065 f33d
000001f0: d35d 11be 2e88 b23b 32f1 90bd 961e 7d3d
00000200: 0b00 9f3d ecd0 4d3c 83d3 153d 948c f8bd
00000210: 48a9 1d3d 8218 e73d 26a1 323d 4424 12bd
00000220: 89b1 103d 649f dbbd 8da8 d03d be1f c63d
00000230: 2ec5 da3d 6c1a 033e 1b10 e63d 2aac a13d
00000240: 7af2 37be cbeb 4fbe 3b75 823d a580 103e
00000250: 5219 663d 7c98 2ebe 2769 1cbd baaf 0d3e
00000260: 87d5 af3c d209 86bb f3fe d03d 2e79 05be
00000270: ec26 5b3c 01e6 0ebe b233 cebd 4c06 f0bd
00000280: 43f9 f6bd 4b36 ee3d ec7b 95bd 826e 903e
00000290: 0f67 d0bc 4654 233e 765f 74be e23e a23d
000002a0: 60c6 28be ab30 77bd 2fe1 72bd a3ae 97bd
000002b0: 1cbb 50bd 8b3a 8dbb 0bc6 3f3e 016d bcbd
000002c0: baaf 95bd 60f3 023e 0a8b 98be 3cfb 01be
000002d0: d204 0e3e d657 d5bd aa98 b3bd ec91 debd
000002e0: 761b 533e aad3 e23d b6b0 9ebd b41e 15be
000002f0: 0ff5 2fbe 9d05 c6bc 56c9 463a acf5 a5bd
00000300: 8a44 6d3e 125a cebd 3d16 04be c4b6 c53d
00000310: 0611 a63c 7d37 64bd 8f27 b3bd d43a b5bd
00000320: 6640 04be d5a0 31be 600e 94bd 2fd1 4cbc
00000330: 13cd 8ebb 76d9 be3c 894c 823d 86e3 f53d
00000340: e5fa 35be c8b4 34bd 10db ccbb daff 53bd
00000350: ac7c ea3d 418f 473d 7e84 b4bd 826a ab3d
00000360: 1e9d d7bc aafb 11bd 06e8 acbd 6ffa c2bd
00000370: 567f 28be 1c5a fa3d 7e11 eebc 6e4c 84bc
00000380: 987c 2cbe 493d b2bc 988f 09be 1cc5 103e
00000390: 00ea 35bd e264 303e 9551 e4bc 0a71 923d
000003a0: f8d7 553d f3a1 483d 8255 ae3b f61b 713e
000003b0: 7fba 343e 5ee5 fbbd 322b 263e cdb9 cbbd
000003c0: 3c10 e0bc 9fa7 37be 3e32 2e3e 3a8a c23d
000003d0: fa17 9e3d aba9 2a3e ba22 973c 18b6 69bc
000003e0: 7509 643d d479 eebd fc16 5abd 66f2 29be
000003f0: f3cd bebd b2e6 253d f22f e73c 6035 3c3d

sequential_2/dense_12/MatMul f4 [128, 128]
0.08208653 0.029257696 -0.031452198 -0.12458643 -0.09298735 0.080372915 -0.11522227 0.11860642
0.15787303 -0.13587557 -0.10762608 -0.08106485 -0.09287276 0.052053828 -0.018505117 -0.020460458
-0.109583564 -0.08506902 0.08925405 -0.08021343 -0.077412225 0.09106037 0.1793873 -0.017301207
-0.13040008 -0.05989476 -0.0037396192 0.14240319 0.08217632 -0.17385004 0.04295908 -0.17040175
0.06725427 0.12921669 -0.11562206 0.036545243 0.039741755 0.06014827 0.06566209 0.142469
-0.10597056 0.007954536 -0.11023457 -0.17754905 0.13993293 -0.0006788998 -0.07813588 0.18943483
0.15229148 -0.06498249 0.043720666 -0.15776584 -0.11372506 -0.19970089 0.09075213 -4.7735855e-05
-0.13194959 -0.02862432 0.07549206 0.047630485 0.053831976 0.013830188 -0.07566949 0.056710057
-0.02923577 0.12353078 -0.14384666 0.059370548 0.12793271 0.07601143 0.17601003 0.19588165
0.08849835 0.15321437 0.11705017 0.044174984 0.09815501 0.13190077 -0.1625524 0.15863469
-0.031342357 0.16055584 0.18110128 -0.017463695 -0.0060788267 -0.04459171 0.06934819 0.16453137
-0.10611778 -0.03805615 -0.07926793 -0.043381162 -0.04828107 -0.079516895 -0.031418327 -0.13471334
-0.09273274 -0.049014017 -0.04099712 -0.0640833 0.086767785 -0.14306405 -0.025862051 0.19991863
-0.05013049 -0.13124347 -0.03485487 0.06343166 -0.00063148106 0.025884995 0.06575344 -0.09643591
-0.0079478165 -0.028538186 -0.018461134 -0.016726531 -0.14890997 -0.09007185 0.0413517 0.052052394
0.0054926896 0.04314715 -0.24843808 -0.106943466 -0.15003157 0.0421716 0.08064101 0.040449083
0.15277001 -0.089574985 -0.07302492 -0.11664981 -0.09326726 -0.1971092 -0.14338455 -0.002229245
0.20034373 -0.104490235 -0.07257563 0.03673404 -0.15982208 0.0146343075 -0.033565596 0.17046054
0.122723885 -0.030003205 0.072029434 -0.018260432 -0.030316843 -0.050147507 -0.16264665 -0.04010857
0.011158016 0.037374154 0.0029204353 -0.043851182 -0.03621698 0.1192769 -0.13597767 -0.023941599
0.003435031 0.09067742 -0.1836396 -0.0181894 -0.09754282 -0.00074064016 0.03394676 0.047618605
0.039645005 0.19677219 0.013622437 0.1364256 -0.091781594 -0.12792234 -0.1638755 0.036065325
0.07637109 0.03438367 -0.055230696 0.10482059 -0.19102699 0.08977372 0.07368007 -0.10427067
0.12573563 -0.073216476 0.15470114 -0.110202804 -0.15540832 0.054637548 -0.046330355 0.08287923
-0.13686171 0.010160662 -0.07110805 -0.10803121 -0.021454018 -0.043141477 0.10657223 -0.021822065
0.14996424 -0.108115084 -0.11288626 -0.08038944 -0.064078 0.06639359 -0.13773938 0.06899159
0.16949716 -0.07265275 -0.16909015 0.026915837 0.12978113 -0.13713185 0.111594744 0.05007843
-0.06062028 0.11970872 0.018096486 0.091345 0.026180798 -0.031863507 0.15955256 0.03572234
0.00034504308 -0.12303963 0.11704274 -0.016972896 -0.02604901 -0.0020059976 0.1532827 -0.21622115
0.11617602 0.07803576 -0.015466029 -0.16937561 0.091231294 0.078477815 0.034295928 0.18635668
-0.14710484 0.079135224 0.009497805 -0.1722823 -0.13455664 -0.025774125 -0.10268361 -0.12639266
-0.029420871 -0.011624442 -0.025784938 0.12551095 0.10027122 -0.07016524 0.19096416 -0.032036413
00000000: fc1c a83d d6ad ef3c 05d4 00bd 2c27 ffbd
00000010: 2770 bebd 8e9a a43d a7f9 ebbd ece7 f23d
00000020: 78a9 213e f722 0bbe 106b dcbd 5405 a6bd
00000030: 1334 bebd 6536 553d 0b98 97bc b19c a7bc
00000040: 596d e0bd ab38 aebd d4ca b63d f046 a4bd
00000050: 4d8a 9ebd dc7d ba3d 4eb1 373e 43bb 8dbc
00000060: 9987 05be 3554 75bd 6614 75bb 24d2 113e
00000070: 0f4c a83d bf05 32be dcf5 2f3d cc7d 2ebe
00000080: 9bbc 893d 6151 043e 42cb ecbd 77b0 153d
00000090: 40c8 223d 085e 763d d979 863d 65e3 113e
000000a0: 1807 d9bd be53 023c aac2 e1bd 6bcf 35be
000000b0: 944a 0f3e 32f8 31ba b405 a0bd 34fb 413e
000000c0: 4cf2 1b3e 8a15 85bd 7114 333d 5e8d 21be
000000d0: afe8 e8bd 647e 4cbe 41dc b93d fc37 48b8
000000e0: cb1d 07be 8d7d eabc 959b 9a3d 2f18 433d
000000f0: eb7e 5c3d 0398 623c 9bf8 9abd ce48 683d
00000100: db7f efbc b5fd fc3d 8a4c 13be 882e 733d
00000110: cb00 033e e1ab 9b3d f93b 343e 3395 483e
00000120: 9f3e b53d 3ae4 1c3e 00b8 ef3d d4f0 343d
00000130: 7e05 c93d ff10 073e 2374 26be 2271 223e
00000140: d860 00bd c068 243e 9d72 393e 0610 8fbc
00000150: e530 c7bb cca5 36bd 6d06 8e3d e97a 283e
00000160: 4754 d9bd c4e0 1bbd 3957 a2bd 72b0 31bd
00000170: 5fc2 45bd c1d9 a2bd 81b0 00bd 4bf2 09be
00000180: aaea bdbd ecc2 48bd 99ec 27bd 1b3e 83bd
00000190: 4fb3 b13d 627f 12be a7dc d3bc 78b7 4c3e
000001a0: a155 4dbd b064 06be fbc3 0ebd 75e8 813d
000001b0: fa89 25ba c50c d43c bda9 863d 3180 c5bd
000001c0: 8f37 02bc eac8 e9bc ce3b 97bc 1406 89bc
000001d0: db7b 18be 9777 b8bd 6660 293d e434 553d
000001e0: 05fc b33b 11bb 303d 8d66 7ebe 2d05 dbbd
000001f0: e0a1 19be 21bc 2c3d 1d27 a53d f0ad 253d
00000200: be6f 1c3e 1773 b7bd 178e 95bd 18e6 eebd
00000210: e802 bfbd fed6 49be 66d3 12be 8618 12bb
00000220: e826 4d3e fafe d5bd 88a2 94bd 6f76 163d
00000230: 66a8 23be bcc4 6f3c 147c 09bd 358d 2e3e
00000240: a956 fb3d 48c9 f5bc 2b84 933d e796 95bc
00000250: 075b f8bc 7967 4dbd d88c 26be e248 24bd
00000260: 1cd0 363c a415 193d c664 3f3b 4c9d 33bd
00000270: 4258 14bd 7347 f43d bb3d 0bbe 2c21 c4bc
00000280: 421e 613b 15b5 b93d 050c 3cbe f001 95bc
00000290: 88c4 c7bd 8527 42ba c20b 0b3d ba0b 433d
000002a0: cd62 223d a67e 493e a430 5f3c 27b3 0b3e
000002b0: fdf7 bbbd 13fe 02be fbce 27be 3cb9 133d
000002c0: 7268 9c3d e4d5 0c3d 9539 62bd 2dac d63d
000002d0: 949c 43be 49db b73d 94e5 963d dc8b d5bd
000002e0: d7c0 003e 85f2 95bd fa69 1e3e 02b2 e1bd
000002f0: 5c23 1fbe 9fcb 5f3d e6c4 3dbd 96bc a93d
00000300: 7a25 0cbe e878 263c 19a1 91bd 783f ddbd
00000310: 56c0 afbc 1eb5 30bd 8b42 da3d 30c4 b2bc
00000320: 3a90 193e 716b ddbd e930 e7bd 38a3 a4bd
00000330: 543b 83bd 5df9 873d 8d0b 0dbe 764b 8d3d
00000340: aa90 2d3e f7ca 94bd f825 2dbe 9a7e dc3c
00000350: 58e5 043e 4b6c 0cbe c98b e43d 0a1f 4d3d
00000360: f94c 78bd d829 f53d 153f 943c 1613 bb3d
00000370: 1d79 d63c 4f83 02bd bf61 233e 9751 123d
00000380: e6e6 b439 34fc fbbd 1bb4 ef3d be0a 8bbc
00000390: bc64 d5bc 0e77 03bb 24f6 1c3e 1469 5dbe
000003a0: b1ed ed3d 36d1 9f3d 3a65 7dbc cd70 2dbe
000003b0: 79d7 ba3d fab8 a03d e379 0c3d 49d4 3e3e
000003c0: a7a2 16be a611 a23d ae9c 1b3c c56a 30be
000003d0: 37c9 09be 4224 d3bc c94b d2bd 146d 01be
000003e0: 0a04 f1bc 7274 3ebc ef3a d3bc f185 003e
000003f0: ff5a cd3d cbb2 8fbd 1c8c 433e 9d38 03bd

sequential_2/dense_13/MatMul f4 [128, 128]
0.071167655 -0.16981243 -0.13403368 -0.021857588 -0.028856399 -0.12882186 -0.11647036 0.04152389
0.036659487 -0.11869741 -0.07001877 0.041262187 -0.20840639 -0.040346373 0.112903826 0.16202727
-0.06238769 -0.1754468 0.047597036 0.01764745 0.08779588 0.12474368 0.081747405 0.09153156
0.087987244 -0.20682424 -0.05941139 -0.051692598 0.02131262 0.069315694 0.107968085 0.058291383
-0.14969131 0.17967817 -0.08092019 -0.10111789 0.054349534 0.17050347 -0.18677114 -0.13494128
0.023118699 -0.16467589 -0.031343047 -0.012748514 0.09792244 0.030573275 0.113702126 -0.052552354
0.017679846 -0.0622079 0.046920314 0.052919574 -0.035170004 0.13408916 -0.10181319 0.077169046
0.09044161 -0.0935529 0.09892959 -0.074525975 -0.0949832 -0.06451575 0.11078892 -0.046344724
-0.012481907 0.06423463 0.09325951 -0.037999902 0.088138804 0.17747548 0.040905535 0.01570072
0.14865704 -0.107404284 -0.07883248 0.15728596 0.084317185 -0.09931979 -0.09252051 -0.08760781
0.012338603 0.11781985 -0.08427858 -0.08197518 0.090032496 0.0052868742 0.14160946 -0.06877991
0.06895127 0.07094849 -0.13086137 0.07718809 0.1522944 0.0679638 0.063012116 -0.08475843
0.14974615 -0.18519512 0.10924127 -0.05813527 0.18531933 -0.13203081 -0.058643274 0.09547926
0.10197591 -0.09293157 0.02807744 0.051648304 0.021002475 -0.14472078 0.13720135 -0.07303449
0.08403373 -0.12632157 -0.020992175 0.04873322 0.04474153 -0.20009236 -0.117803924 0.07255002
-0.18920122 0.07917979 -0.10506508 -0.05655609 0.055578593 -0.010483731 -0.04498849 0.06120622
-0.083905034 0.15589085 0.09580988 0.116240285 0.13370112 0.084516816 -0.1298804 -0.13608922
0.13734122 -0.11120261 0.057229396 -0.054266915 0.026520528 0.051283985 0.14345948 -0.06510254
-0.16277468 0.0027428253 0.20852579 -0.20611376 -0.12572357 0.042017393 0.07832503 -0.07156875
0.08201924 -0.07664665 -0.059566434 0.06319688 0.17164299 -0.05628448 0.00087470264 0.04013347
0.08467573 0.09355394 0.009587028 -0.033426464 0.0017709127 0.030625874 -0.127774 -0.01650398
0.11556319 -0.060551602 -0.092703804 -0.13111153 0.1833224 0.16618504 0.16190048 -0.05592377
-0.015384722 0.09142058 0.047790613 -0.10538484 -0.2297817 -0.034012757 -0.05776954 0.21218915
-0.088958964 0.17423655 0.11635243 0.1264537 0.03657588 -0.18420942 0.11216354 0.14789453
-0.0037357581 -0.060896594 -0.123116225 0.08542606 -0.17118903 -0.03557797 0.13599387 -0.14112377
0.15617214 0.11764775 0.091593035 -0.13439202 -0.1367278 -0.081250325 -0.102137044 0.014489345
0.12872024 0.15789591 0.09254298 0.047217537 -0.033985823 0.01389772 0.092689015 -0.03758161
-0.05447789 -0.017060123 0.07471331 -0.012589898 0.17857604 -0.09878316 -0.15553892 -0.08835413
-0.21825211 0.12789994 0.1461309 0.118123606 -0.111421585 -0.052549236 0.049231786 0.018918367
-0.079309486 0.10057037 -0.08265599 0.40877533 -0.046600692 0.08371009 0.16605069 -0.012890257
-0.071049124 -0.07977384 -0.13892597 0.14449514 0.05558206 0.1384285 0.006840365 0.040307447
-0.06496765 -0.09647849 -0.052746158 -0.12673746 -0.13071169 0.11977545 -0.19729012 -0.13299242
00000000: 59c0 913d 4fe3 2dbe 2040 09be af0e b3bc
00000010: 4164 ecbc e1e9 03be 0388 eebd f414 2a3d
00000020: 4228 163d a117 f3bd 0066 8fbd 8a02 293d
00000030: 7c68 55be 3d42 25bd 1f3a e73d 7aea 253e
00000040: 3c8a 7fbd 53a8 33be 1cf5 423d 6391 903c
00000050: 54ce b33d 9d79 ff3d 2f6b a73d e674 bb3d
00000060: a832 b43d bcc9 53be 5c59 73bd 9ebb 53bd
00000070: ce97 ae3c 63f5 8d3d 5f1e dd3d f2c2 6e3d
00000080: ae48 19be 8efd 373e 7cb9 a5bd e516 cfbd
00000090: 9e9d 5e3d 7698 2e3e ef40 3fbe 0c2e 0abe
000000a0: 6d63 bd3c cca0 28be 9161 00bd 25df 50bc
000000b0: 8f8b c83d ce74 fa3c a9dc e83d 2341 57bd
000000c0: 53d5 903c b6cd 7ebd 842f 403d 32c2 583d
000000d0: 6c0e 10bd ab4e 093e 6f83 d0bd ce0a 9e3d
000000e0: 7339 b93d aa98 bfbd 999b ca3d 13a1 98bd
000000f0: 8d86 c2bd d520 84bd 4de5 e23d f7d3 3dbd
00000100: ea80 4cbc 728d 833d d8fe be3d c9a5 1bbd
00000110: 1e82 b43d 22bc 353e 908c 273d cc9e 803c
00000120: 8d39 183e c7f6 dbbd ec72 a1bd 920f 213e
00000130: 7dae ac3d 2d68 cbbd 657b bdbd b96b b3bd
00000140: da27 4a3c 894b f13d 409a acbd 9ae2 a7bd
00000150: f562 b83d 843d ad3b 1202 113e 7bdc 8cbd
00000160: 5336 8d3d 714d 913d 8600 06be ca14 9e3d
00000170: 10f3 1b3e 9b30 8b3d 7f0c 813d d495 adbd
00000180: 0e57 193e caa3 3dbe e3b9 df3d 401f 6ebd
00000190: 5ac4 3d3e 1633 07be ee33 70bd a18a c33d
000001a0: bfd8 d03d e852 bebd a902 e63c 2c8d 533d
000001b0: 620d ac3c af31 14be 837e 0c3e 1b93 95bd
000001c0: e019 ac3d 715a 01be c8f7 abbc 7c9c 473d
000001d0: e542 373d 03e5 4cbe 2f43 f1bd 1b95 943d
000001e0: f7bd 41be 0429 a23d 5c2c d7bd 5ca7 67bd
000001f0: 61a6 633d f4c3 2bbc da45 38bd 60b3 7a3d
00000200: 67d6 abbd daa1 1f3e f837 c43d 630f ee3d
00000210: f2e8 083e 2717 ad3d 5eff 04be f95a 0bbe
00000220: 2da3 0c3e 32be e3bd 5f69 6a3d fc46 5ebd
00000230: 9441 d93c 280f 523d 0be7 123e 7b54 85bd
00000240: 68ae 26be f9c0 333b c987 553e 7c0f 53be
00000250: aebd 00be 6e1a 2c3d e068 a03d a392 92bd
00000260: b4f9 a73d ebf8 9cbd effb 73bd 5e6d 813d
00000270: 2ec3 2f3e 8e8a 66bd 4d4c 653a fe62 243d
00000280: 786a ad3d 3599 bf3d e912 1d3c 30ea 08bd
00000290: f81d e83a 1de3 fa3c 30d7 02be 5b33 87bc
000002a0: 65ac ec3d f504 78bd 7edb bdbd 1a42 06be
000002b0: deb8 3b3e 692c 2a3e 3dc9 253e 5310 65bd
000002c0: 3310 7cbc b73a bb3d 17c0 433d 02d4 d7bd
000002d0: e54b 6bbe f650 0bbd c19f 6cbd 1d48 593e
000002e0: 1e30 b6bd 116b 323e 2f4a ee3d 147d 013e
000002f0: 97d0 153d 65a1 3cbe 00b6 e53d aa71 173e
00000300: 9fd3 74bb b56e 79bd 5c24 fcbd dcf3 ae3d
00000310: 2d4c 2fbe 35ba 11bd fa41 0b3e c082 10be
00000320: 97eb 1f3e 4ef1 f03d 2195 bb3d 109e 09be
00000330: 5f02 0cbe 9266 a6bd 3a2d d1bd b864 6d3c
00000340: 3dcf 033e 77af 213e 2d87 bd3d 2d67 413d
00000350: b834 0bbd 43b3 633c bdd3 bd3d 2def 19bd
00000360: 3524 5fbd acc1 8bbc 4b03 993d dc45 4ebc
00000370: a3dc 363e d34e cabd 9845 1fbe 03f3 b4bd
00000380: 7b7d 5fbe 34f8 023e 57a3 153e caea f13d
00000390: 0031 e4bd de3d 57bd 45a7 493d b1fa 9a3c
000003a0: 036d a2bd d7f7 cd3d 8b47 a9bd 004b d13e
000003b0: 5ee0 3ebd 3270 ab3d 3109 2a3e a831 53bc
000003c0: 3482 91bd 7860 a3bd 9c42 0ebe 89f6 133e
000003d0: 04aa 633d 33c0 0d3e 2425 e03b 6c19 253d
000003e0: c20d 85bd 8496 c5bd 5b0c 58bd 77c7 01be
000003f0: 49d9 05be d54c f53d 6c06 4abe 2a2f 08be

sequential_2/dense_14/MatMul f4 [22, 128]
-0.2561854 0.077668995 -0.0221542 0.08669713 -0.12304776 -0.3825376 -0.025464328 -0.0144901285
0.1460487 0.057895117 -0.013427451 -0.2519058 0.18969245 0.1690173 -0.092706285 -0.09171564
-0.1480881 -0.022241717 -0.25894246 -0.027883014 0.06871547 0.07082914 -0.34205794 -0.29675934
0.10506146 0.022900498 0.22687237 -0.21529916 0.20421104 -0.17002775 -0.1715299 0.03267366
0.10178038 0.19840875 -0.24417715 -0.29101712 -0.04916999 -0.24264228 -0.122049026 0.06848922
0.12051279 0.08517897 0.07381391 -0.28151035 -0.07902655 -0.10503594 -0.089177564 0.087500975
-0.3687959 -0.12613814 -0.10625432 0.013829313 -0.17050833 -0.2381487 0.1879691 -0.07942092
-0.3345127 -0.18598963 0.17499343 -0.019211777 -0.3822337 -0.04862562 0.15650077 -0.061925586
-0.22215472 0.117916815 -0.26233035 -0.023902357 0.16233253 -0.08981609 0.05399468 0.1889986
-0.29101628 -0.17068559 0.065083526 0.11418366 -0.33156583 0.24405655 0.2423221 0.21203712
0.119119085 0.060174882 -0.14822955 0.1867955 0.06587516 -0.06073578 -0.16598177 0.114611916
0.108471036 -0.24865949 -0.1605978 -0.0039080414 0.041998804 -0.27054664 0.06072374 -0.11825962
0.29850906 -0.29327402 -0.22585377 -0.15287332 -0.24710268 0.01526651 0.0098903775 -0.20807788
-0.088227615 0.13210993 0.0032428126 -0.13092205 0.18935779 0.18265216 0.051226854 -0.24274488
0.07759428 -0.0028070242 0.18687376 0.13529138 -0.09426195 -0.0880568 0.093132325 0.2099214
-0.16715492 -0.12132387 0.044676263 -0.17643848 0.044907182 -0.052948426 -0.22422259 -0.2570888
0.05175645 -0.23429532 -0.10774653 0.10587947 -0.013063017 -0.018839806 0.095959745 0.062407102
0.2066057 0.054081395 0.15250984 -0.18984306 0.041425996 0.16764037 -0.14230755 -0.018833622
-0.25649545 -0.39028022 0.16035049 0.2195775 -0.07839694 -0.047640685 0.116399564 0.10199996
-0.15098397 0.21857035 0.09857018 -0.16013174 -0.15345976 -0.021585127 -0.17848516 0.16375554
-0.008393004 -0.19309427 -0.20889388 0.10108847 0.17975374 0.0028091527 -0.03511282 -0.08537555
-0.32969058 0.063999645 0.13694806 -0.13227892 0.20356001 -0.054465547 -0.19379587 0.17624468
-0.19371477 -0.16368093 -0.114133485 0.18716536 -0.38950166 0.19748993 0.14356764 -0.052062847
-0.31659752 -0.35508955 -0.07980983 0.2035458 -0.6898512 0.10290795 0.11051276 0.033102956
-0.19776022 -0.20207989 -0.21563633 -0.08834367 -0.2021506 -0.24360165 0.0408932 -0.10604237
-0.024971666 -0.13455363 -0.17280994 0.03670733 0.1287631 0.1817907 -0.11304634 -0.22081368
0.05249195 -0.13606368 -0.14449286 -0.28559807 0.047785573 0.24051288 -0.20578428 0.06666831
0.10295724 0.22221969 -0.056259345 -0.23824862 0.15442881 -0.085678495 -0.2016507 -0.0936892
0.0031752468 -0.08409408 -0.003719304 -0.30103278 -0.048594546 -0.13699505 0.032556117 0.14381953
0.12851854 0.128864 0.13618654 -0.27002013 -0.079822235 0.11754367 0.0115221245 -0.24549411
-0.093783684 0.04933804 -0.050117325 -0.14923806 0.056162354 0.010710253 -0.05612764 -0.3527744
0.1605103 -0.24601144 -0.042419244 -0.037625473 -0.012997016 -0.2660407 -0.15611301 0.12979703
00000000: bc2a 83be ec10 9f3d ba7c b5bc 448e b13d
00000010: 7700 fcbd f8db c3be 919a d0bc 0168 6dbc
00000020: ca8d 153e 6e23 6d3d d0fe 5bbc ccf9 80be
00000030: bd3e 423e df12 2d3e cbdc bdbd 69d5 bbbd
00000040: 68a4 17be 4334 b6bc 1b94 84be eb6a e4bc
00000050: b2ba 8c3d de0e 913d 3822 afbe d7f0 97be
00000060: 762a d73d d399 bb3c 3b51 683e 6277 5cbe
00000070: b31c 513e c11b 2ebe 89a5 2fbe d1d4 053d
00000080: 3b72 d03d aa2b 4b3e 9309 7abe 3200 95be
00000090: 7966 49bd 3877 78be d7f4 f9bd 1444 8c3d
000000a0: 69cf f63d 5072 ae3d bf2b 973d 2022 90be
000000b0: acd8 a1bd 151d d7bd baa2 b6bd b633 b33d
000000c0: d1d2 bcbe 5b2a 01be dd9b d9bd 5894 623c
000000d0: bc99 2ebe 41dd 73be f97a 403e 6fa7 a2bd
000000e0: 4045 abbe 1174 3ebe 7a31 333e 0462 9dbc
000000f0: 23b4 c3be a82b 47bd bd41 203e afa5 7dbd
00000100: 877c 63be 5f7e f13d 2a50 86be e0ce c3bc
00000110: 803a 263e 80f1 b7bd 8729 5d3d d988 413e
00000120: 1600 95be 34c8 2ebe 834a 853d 1fd9 e93d
00000130: ffc2 a9be f6e9 793e 4923 783e 4220 593e
00000140: b5f4 f33d f079 763d 7dc9 17be 5247 3f3e
00000150: 8ee9 863d 15c6 78bd 20f7 29be a7b9 ea3d
00000160: 1026 de3d 98a0 7ebe c073 24be 070f 80bb
00000170: f006 2c3d 1785 8abe 75b9 783d 1a32 f2bd
00000180: 2ed6 983e 0328 96be 3646 67be d38a 1cbe
00000190: 7c08 7dbe 6220 7a3c 400b 223c 5e12 55be
000001a0: aeb0 b4bd d347 073e 5e85 543b 6e10 06be
000001b0: 02e7 413e 2b09 3b3e 40d3 513d 1d92 78be
000001c0: c0e9 9e3d 0df6 37bb d65b 3f3e d389 0a3e
000001d0: 690c c1bd 2057 b4bd 29bc be3d a3f5 563e
000001e0: a92a 2bbe a678 f8bd 75fe 363d 4aac 34be
000001f0: 98f0 373d 73e0 58bd 9b9a 65be 25a1 83be
00000200: 92fe 533d 1deb 6fbe 36aa dcbd 56d7 d83d
00000210: 4406 56bc f055 9abc 8b86 c43d 979e 7f3d
00000220: 7290 533e 7484 5d3d 8a2b 1c3e 3866 42be
00000230: 4eae 293d eba9 2b3e 12b9 11be f848 9abc
00000240: 5f53 83be cfd2 c7be eb32 243e edd8 603e
00000250: 938e a0bd e122 43bd e562 ee3d 5be5 d03d
00000260: 8b9b 1abe e8d0 5f3e 2adf c93d 93f9 23be
00000270: 8e24 1dbe 4bd3 b0bc d0c4 36be 88af 273e
00000280: cf82 09bc 81ba 45be 47e8 55be 7907 cf3d
00000290: 5d11 383e c319 383b 76d2 0fbd 60d9 aebd
000002a0: 34cd a8be 3f12 833d 1d3c 0c3e 2074 07be
000002b0: 0972 503e 4417 5fbd 6d72 46be 7c79 343e
000002c0: 2a5d 46be f99b 27be d1be e9bd 47a8 3f3e
000002d0: c36c c7be cd3a 4a3e 6503 133e da3f 55bd
000002e0: 1219 a2be 4cce b5be 5673 a3bd 4f6e 503e
000002f0: 179a 30bf 67c1 d23d 8454 e23d f796 073d
00000300: a881 4abe 08ee 4ebe c5cf 5cbe 87ed b4bd
00000310: 9100 4fbe b672 79be a17f 273d be2c d9bd
00000320: 6191 ccbc 6dc8 09be 17f5 30be 6d5a 163d
00000330: 79da 033e 5727 3a3e d784 e7bd fb1c 62be
00000340: cd01 573d 4754 0bbe f0f5 13be e939 92be
00000350: ceba 433d 0249 763e 1db9 52be 6589 883d
00000360: 3fdb d23d 8f8d 633e 3370 66bd 72f7 73be
00000370: 9622 1e3e 3578 afbd 857d 4ebe 20e0 bfbd
00000380: cd17 503b 8439 acbd 91bf 73bb f820 9abe
00000390: 130b 47bd 6e48 0cbe 9059 053d 6d45 133e
000003a0: 5d9a 033e edf4 033e 7c74 0b3e 1440 8abe
000003b0: d779 a3bd bcba f03d 4bc7 3c3c cf62 7bbe
000003c0: a911 c0bd af16 4a3d d347 4dbd ddd1 18be
000003d0: 7f0a 663d 0f7a 2f3c 19e6 65bd d99e b4be
000003e0: d05c 243e 6cea 7bbe cdbf 2dbd 2b1d 1abd
000003f0: 70f1 54bc 7d36 88be 17dc 1fbe 83e9 043e
